weights/od_lstm-2l-128hs-0.2d-365lb-125e-64bs-all.pth (torch, 830658 bytes, 9 tensors)

lstm.weight_ih_l0 f4 [512, 16]
00000000: 99c8 36bc 87e5 0a3d b752 b0bd c3cb 37bd
00000010: c721 4fbd aea4 433d 264d 173d ebfd 453d
00000020: 084a 3d3c eb45 143d e363 70bb f03e a5bd
00000030: 263f 9ebd 11cc 80bd 5baf a0bd 889a 453d
00000040: cab5 f53c 8a6f 303d 7337 87bd d786 f3bc
00000050: 06a7 b83c db27 a63d 31fe aebc 98f9 723d
00000060: 234b c23b 7306 b43c 6666 c13d dddb 69bd
00000070: 59a6 d6bd 2a1e 49bd 63ff d1bd d1a8 ce3d
00000080: 3ff5 bcbd ab79 a0bd 37df c6bd e412 a4bd
00000090: c5de aabd b85f ac3d e883 0f3d 70af 77bd
000000a0: 8906 243b 3336 55bd d193 ee3c 1e72 fdbc
000000b0: aed0 33bd 9f06 45bd 1b62 9b3d 7205 a83d
000000c0: ceb5 60bd 89c6 8cbc 664f 353d 0b98 913d
000000d0: 83ea b73c eb86 87bb 7b21 263d 8d3c cfbd
000000e0: 0e02 0b3b d65a bbbd 0bb4 91bd 6e08 1f3d
000000f0: ab32 9a3d 3cb9 703d d122 14bd d92f 673d
00000100: 8332 3b3d bd4d 86bc 2857 b0ba f008 233d
00000110: efb2 4e3d d7b0 e13d a676 27bd 37ea 8cbd
00000120: 813c 8d3d d02a ce3d e65a d13d 39d4 3d3e
00000130: 2801 8e3d f756 ccbd 9c41 1bbd 53fd fabc
00000140: a3db 93bd b6ba c03d 0805 a43d abaa 6bbd
00000150: c9ff 0b3d 450e ec3c b888 b1bb 570e f6bc
00000160: cc44 c33b ff46 bebd 2cd3 5c3d a9c3 e13d
00000170: 4d0d 443e 8e4d a8bc 6aae 88bc a4c8 68bd
00000180: b64b 283d 963c 3e3d 6433 1cbd c7c9 d0bc
00000190: e8d2 0c3e 25d4 a63d 6c2c 76bc 1412 1ebd
000001a0: 494d 0ebe de81 8cbd 236e 4fbd 9db9 c5bc
000001b0: db26 3b3d 1ee6 2c3d 344a 6fbc b525 393d
000001c0: e95f 04bd 2cc1 c23d 71e9 983d 84de 80bd
000001d0: 5dc9 90bc 0925 143d a345 febc adfc 743d
000001e0: 1e32 bc3c f25b 96bc c2a5 23bd 9781 b43d
000001f0: 1b2a fa3c 5540 62bd f72b 07be 47fb d5bd
00000200: 023a 96bd 3026 e5bd 5e1d 65bd fac6 0abd
00000210: cbbb b1bd 2e77 d33b e63f cb3d 5669 f43a
00000220: 93be ef3c 5b6e a13c 3ac8 363c 1593 be3d
00000230: 4892 143e bb9f d5bd eb63 bbbd 8766 3c3d
00000240: e060 d1bd 4296 87bd 6934 133d 1740 2b3c
00000250: d8a8 8dbd e51e 3dbd 4152 51bd 4039 5fbd
00000260: 08f6 fbbb cfbe 673d 0b81 7d3d 7f16 03be
00000270: e86e bebd 37d1 21be 31d1 27be 0027 0dbb
00000280: 3557 37bd ff2a 2ebd 7f3e d9bd 1c19 91bd
00000290: 26dc 18bd a4f7 013c 4418 1b3b ae3d 703d
000002a0: c6a5 d0bd d84e 12bd f311 a53d 7adb 1cbe
000002b0: 0c71 a33d f15e 1a3d 10f3 febd 4fd1 3e3d
000002c0: 2457 35bc 9536 21bd 9ef3 913d 1dff 9abd
000002d0: 91a0 223c 4df1 52bc 3a9f 983d 2fbd d3bc
000002e0: 269d 593d 0b20 343d ce94 a5bc 6d7e 07bd
000002f0: e197 2039 2837 553c fb44 173d acdb 893d
00000300: d921 ddbd fdce 0ebd b1e9 d0bd f3f8 83bd
00000310: 8dc3 a0bd 30f9 77b9 e48b e5bd cb99 62bc
00000320: ba8a cdbc ebb8 e33c c2b5 b3bd 7f95 413d
00000330: d85d 0ebe f37a 153e 2a55 e93c ec66 b23d
00000340: 4402 f33d 52dd fa3d b253 c73d 87a0 b1bc
00000350: a7cb 023e bf83 e7bb 3ae6 12be 6ba6 e63d
00000360: c27f 60bd a55f 803b 5874 053d ed21 75be
00000370: eaff 1b3d d153 32be cfc9 58be f02e 84be
00000380: d82f 26be d253 35bd 1ebf 26be 8076 a6bd
00000390: 103a 01be 1a34 f7bd 3fa2 00be 3afe 2e3e
000003a0: 5d5d e5bd 2856 73bd f25e ffbc 0d6a 33bd
000003b0: 25f8 c1bb be35 1abd 36f2 f8bd 225f 11be
000003c0: 2c94 393d 8457 c43d 0f21 023c d997 00bc
000003d0: 076c d73d 28c4 88bd 9b61 e43c 5251 14be
000003e0: 36b2 dc3c 7f9c ea3c 6ed6 dcbc 2bf1 903d
000003f0: 76c7 793e 7837 bc3a 15f1 7ebd 2cf4 693d
-0.011156225 0.0339103 -0.086095266 -0.044872057 -0.050569322 0.047764473 0.03693881 0.04833786
0.011553295 0.03619949 -0.003668063 -0.08068645 -0.07726888 -0.062889226 -0.078459464 0.048243076
0.02999391 0.043075122 -0.06602373 -0.029727383 0.02254058 0.081130706 -0.021361442 0.059320062
0.005929367 0.021975731 0.09443359 -0.057094444 -0.10480947 -0.049101032 -0.10253789 0.10090793
-0.092264645 -0.07835706 -0.097105436 -0.080114156 -0.08343271 0.084166944 0.035037905 -0.060470045
0.002502831 -0.05205364 0.029123219 -0.030938204 -0.043900184 -0.048102017 0.075870715 0.082041636
-0.054860882 -0.017184513 0.044265173 0.07109078 0.022450691 -0.0041359565 0.040559273 -0.10118971
0.0021210941 -0.09148185 -0.071144186 0.0388264 0.075291954 0.058770403 -0.036166016 0.056442115
0.04570247 -0.01639449 -0.0013453709 0.039803445 0.050463613 0.11020058 -0.040884636 -0.068806104
0.06896306 0.100667596 0.102224156 0.18537988 0.06933814 -0.09977525 -0.037904367 -0.030638373
-0.07219627 0.09410612 0.08008772 -0.05753581 0.034179483 0.028815398 -0.0054179095 -0.030036135
0.005959129 -0.09290885 0.053912327 0.11023647 0.19145699 -0.020544793 -0.01668473 -0.05683197
0.04108783 0.046444498 -0.038134947 -0.02548684 0.1375233 0.08145932 -0.015025239 -0.03859146
-0.1389667 -0.06860708 -0.050642144 -0.024136359 0.045691352 0.042211644 -0.014605094 0.045201976
-0.03231803 0.09509501 0.074664004 -0.062924415 -0.017674142 0.036168132 -0.031039065 0.059811283
0.022973116 -0.01835439 -0.039953 0.0881378 0.030537656 -0.055237133 -0.13200365 -0.10448318
-0.07335283 -0.11188924 -0.05593621 -0.033881165 -0.08678397 0.0064534163 0.09924297 0.0018647115
0.029265678 0.019705942 0.011156136 0.093053974 0.14508927 -0.10430857 -0.09149917 0.045996215
-0.102235556 -0.06620456 0.035938654 0.010452292 -0.0691697 -0.04617204 -0.051103834 -0.054497957
-0.0076892413 0.056578454 0.061890643 -0.1280155 -0.092984974 -0.15802465 -0.16388394 -0.0021538138
-0.0447609 -0.042521473 -0.10607623 -0.07084867 -0.037319325 0.007932577 0.0023665586 0.058652572
-0.10187869 -0.035719723 0.08060064 -0.15318099 0.07980546 0.0376882 -0.12448704 0.04658633
-0.011068139 -0.039358694 0.071265444 -0.0756819 0.009925977 -0.012874913 0.07452245 -0.025847046
0.053128384 0.04397587 -0.020212557 -0.033079553 0.00015315368 0.013013639 0.03693102 0.06731352
-0.107974716 -0.03486537 -0.10200823 -0.06443968 -0.07849798 -0.00023648585 -0.11208323 -0.013830612
-0.025090564 0.027798137 -0.08774902 0.04726171 -0.13902986 0.14597683 0.028482992 0.08711037
0.118656665 0.12249245 0.097327605 -0.02168299 0.12773 -0.007065266 -0.14345637 0.112622105
-0.05480934 0.0039176517 0.032581657 -0.23938723 0.038085856 -0.17414786 -0.21170734 -0.2581706
-0.16229188 -0.04426939 -0.16283843 -0.08128071 -0.12619805 -0.120704845 -0.12561892 0.17089167
-0.11199448 -0.059408337 -0.031173203 -0.04380231 -0.0059194737 -0.03764891 -0.12155573 -0.14196447
0.045307323 0.09587005 0.007942452 -0.007848703 0.105186515 -0.06678039 0.027878573 -0.14484146
0.026940446 0.028639076 -0.026957717 0.07077249 0.24392495 0.0014359793 -0.062241632 0.057117626

lstm.weight_hh_l0 f4 [512, 128]
00000000: ba36 023c acd8 463d 294a 8b3c 3011 94bd
00000010: 59d3 07bd 9af1 84bd db95 703d 4f73 9d3d
00000020: 0fae 5cbd ac7b 263d 74d8 9cbd 1b1c 3a3d
00000030: 28f6 bdbd a5e6 d4bd 749b 3dbb 3d44 983c
00000040: 11fe 913d c021 3bbb 3e8c 203d aeec 283d
00000050: 9ef0 c63c f536 a4bd db39 5bbd 86b9 f1bc
00000060: 49a1 c23c 99d9 053d 113a 873d 89c7 c73c
00000070: 5f9d 68bd dee9 b4bd fa66 9a3d ec22 d83d
00000080: 6863 c6bd f505 e5bc b901 623c 7d4f 0c3b
00000090: 7c09 c03d 7c01 2bbb e589 e43c 7854 b53d
000000a0: 5847 9bbd f951 363c 904a a3bd 1edd 79bd
000000b0: d283 b2bd 5796 403d 84be 67bc 069a 003d
000000c0: 5405 013d 052d ac3d 27d1 9bbd c642 bfbc
000000d0: 5606 24be a582 b2bd cde8 0d3d 413d 563d
000000e0: 064f 3a3d cb96 8abd 3d5a a5bc 3851 76bd
000000f0: b4b4 80bd f5b1 21bb 81a0 b63c 8845 d4bc
00000100: 02f3 94bd b923 293d 91a6 643d f41d c9bd
00000110: 983f a2bc 8b66 47bd 56f0 513d a61e 8b3c
00000120: 2322 15bd d1ce 843d 5807 623d a2d8 8a3d
00000130: 8988 993d b803 13bd d426 bd3d 7e87 49bc
00000140: ba8e a1bd c3d2 6c3d 1393 d3bd 657c edbc
00000150: bf89 1fbd bf74 aa3d 90f4 4c3b 5a5f cfbd
00000160: 77ff 2ebd 8cab c83c 71c8 ffbc 0e79 fb3c
00000170: 7b1f 233d 5334 78bd 5172 38bd b1e9 6bba
00000180: 01b9 d0bb 6a89 d5bc 9327 e33d 22d5 49bd
00000190: ec9c a03c 999d 013d 40e0 af3d 108a d7bd
000001a0: caae 653d e4cb 1b3c a39a 0abd 467a 953d
000001b0: 5dab 4d3d df2a 383d 8445 7abd 9401 993d
000001c0: fd82 8a3d ffbe c73c d9d3 74bd f6de 21bd
000001d0: 3a3e ca3c 61be 8a3d b37a 343d 1366 c7bd
000001e0: d550 e03b 5f49 913c 7bb6 44bd 7214 a93d
000001f0: a27e 0b3d 15a3 ea3c bda0 bb3d 2027 ce3c
00000200: 051d 953d 1046 d7bb c00c 863d 5706 5bbd
00000210: 0feb bfbd 56b3 f23c cc3f 523c ed5e c0bd
00000220: 7989 8b3d 5e3c 95bc 1b82 1a3d 7626 a43d
00000230: d5f8 b03d b89b 8abc 4451 f33c c0fe c1bd
00000240: f1e4 213d 1963 523d bed6 4e3d eaca 193d
00000250: efb7 7b3d c73e 1fbc 7ec6 a83c c433 c3bd
00000260: c27b 81bd f85c e33c 9f6d eb3c 7211 203d
00000270: c0bd 1f3d 0aac a7bd 4915 0e3d 300e bf3d
00000280: 2a1e 1ebd f6e9 b2bc 45c4 9c3d a77d b03d
00000290: afec 8b3d 1925 39bd 1c7b 573d 3825 123d
000002a0: d708 9c3d 7988 9dbb 5aa0 cbbd 1b2c e93c
000002b0: 5d75 81bd 1442 943c 95f0 673d b01d 8b3c
000002c0: ea79 a33d 7381 363e 70bb 9cbd bdfb a6ba
000002d0: 63dd ecbc f1ee d2bc 506a 06bd 05ee 9e3d
000002e0: 51b8 3d3d 55b9 b5bd ed7e 89bd 72ae a7bd
000002f0: 4633 a03b 6db4 b93d 4c5c 3bbd 4764 82bd
00000300: 8271 a33d 43f6 7cbc 6a0e c8bc 2c4a 26bd
00000310: ed7c 153d b7e2 9abc b447 e53c de41 233d
00000320: d6f7 1fbd d639 903d 1e0b 2e3d b73c 633b
00000330: 9ca5 903d 5a26 1abc f918 473c 732a 093d
00000340: 05b7 8bbd 2105 c0bc 3b39 6bbd 7781 a9bb
00000350: a957 80bd e829 b2bc a530 dfbc 0f08 8c3d
00000360: 865a 3c3d 8e7e 86bd cc81 87bd e71b c9bc
00000370: 5b73 ee3c d92a 343d 521f a03d 8c48 8fbd
00000380: 30c3 ab3d f631 4f3d 9755 39bd f792 97bd
00000390: e1d4 4bbd a2c9 4a3b 8ea6 81bc 202d bcbd
000003a0: 2836 b5bc 8b14 083d 74c8 10bc 20f5 83bd
000003b0: 517a 74bd bc90 f93c 00f5 e43c 14e5 0abd
000003c0: c049 44bd 056f 103d acd3 d1bd 65ae d4bd
000003d0: 0337 b43d d364 043d e760 50bc f8c1 c4bb
000003e0: 85db 853d c195 a9bd 382f 9ebc e173 04bd
000003f0: 36d1 aebd 5012 553d 7dc3 97bd f904 60bc
0.007947618 0.04854648 0.017003136 -0.07229841 -0.03316054 -0.06491394 0.058736663 0.07688009
-0.053876933 0.040645286 -0.07658473 0.04543696 -0.09275466 -0.103955545 -0.0028931769 0.018587226
0.071285374 -0.0028554052 0.039196245 0.04124134 0.024284657 -0.08018295 -0.053521972 -0.02950741
0.023758547 0.03267822 0.06602872 0.024387138 -0.056790706 -0.08833669 0.075391725 0.10553536
-0.09686929 -0.027956942 0.013794356 0.0021409683 0.09376809 -0.0026093414 0.027897784 0.08854002
-0.07581967 0.011127942 -0.07973206 -0.06100189 -0.08716549 0.047018375 -0.014144544 0.03139689
0.031499222 0.08407024 -0.07608252 -0.02334727 -0.16018042 -0.08716325 0.034645844 0.05230451
0.04548552 -0.06767043 -0.02018463 -0.06013605 -0.062844664 -0.002467272 0.022293331 -0.025912061
-0.072729126 0.041293833 0.055822913 -0.09820166 -0.019805714 -0.048681777 0.051254593 0.016982388
-0.03640951 0.064847596 0.055182785 0.06779601 0.07496745 -0.03589222 0.092359215 -0.01230037
-0.07888551 0.057818186 -0.103307866 -0.02898998 -0.038949724 0.08323049 0.00312737 -0.10125609
-0.0427241 0.024495862 -0.031223508 0.030697372 0.039824944 -0.060596775 -0.045030896 -0.00089993613
-0.0063697104 -0.0260665 0.110915326 -0.049275525 0.019606076 0.031644437 0.08587694 -0.1052438
0.056074895 0.0095090605 -0.03383888 0.072987124 0.050212253 0.04496276 -0.06110145 0.07471004
0.06763265 0.024383066 -0.059772346 -0.039519273 0.024687875 0.06774593 0.044062328 -0.09736266
0.0068455734 0.017735181 -0.04802559 0.08255853 0.034056313 0.028642217 0.09161518 0.02516514
0.07280926 -0.0065696314 0.065454006 -0.053472843 -0.09371006 0.02962653 0.012832593 -0.09393106
0.0681333 -0.018217262 0.037721734 0.08015148 0.08641211 -0.016919956 0.029701836 -0.09472418
0.039524976 0.05136404 0.050497763 0.03754703 0.06145471 -0.009719557 0.020602461 -0.09531358
-0.06322433 0.027754292 0.028738795 0.039079137 0.03899932 -0.08187111 0.034688268 0.09328878
-0.038602985 -0.021840077 0.07654623 0.08617716 0.06832253 -0.045201395 0.05260764 0.035680026
0.076188736 -0.0048075286 -0.09942694 0.028463414 -0.063212134 0.018097915 0.05662592 0.01698193
0.07982238 0.17822818 -0.07652938 -0.0012739819 -0.02891416 -0.025748702 -0.03281623 0.077602424
0.046318356 -0.0887324 -0.06713662 -0.0818757 0.004888925 0.090676166 -0.045742318 -0.06366783
0.07980634 -0.015439573 -0.024420936 -0.04059808 0.03649609 -0.018906934 0.027988292 0.039857738
-0.039054714 0.07042281 0.04249107 0.003467364 0.070628375 -0.009408558 0.01215195 0.03348775
-0.068220176 -0.023439946 -0.057427626 -0.005172904 -0.0626672 -0.021748498 -0.027244875 0.068374746
0.045984767 -0.06567107 -0.06616554 -0.024549438 0.02910774 0.043986175 0.07818474 -0.06996259
0.083868384 0.050584756 -0.04524764 -0.07401078 -0.049763564 0.0030942936 -0.01582649 -0.091882944
-0.02212055 0.033222716 -0.008836854 -0.06443238 -0.059686963 0.030464523 0.027948856 -0.033909872
-0.047921896 0.035262126 -0.10245451 -0.103848256 0.08799555 0.032322716 -0.012718416 -0.006004568
0.06536011 -0.082805164 -0.019309625 -0.032337073 -0.085359976 0.052019417 -0.07410333 -0.013673061

lstm.bias_ih_l0 f4 [512]
00000000: b2f1 433d e2c9 8fbd 4182 b9bd ce8e 933d
00000010: 5f93 b6bd dbbc ccbd 9452 5cbd 5f61 5ebd
00000020: b26f 823d d973 573d 21e7 233d 6a3e 993d
00000030: d406 55bd b3d0 06bd 8209 bb3d e5ab b1bd
00000040: 0b2b c83d 3c1b 74bd 8646 143d 169f 9d3d
00000050: c344 663c f53f bfbd 2314 a0bd 04c3 253d
00000060: e619 6b3e 0538 a93d cd3e 1e3d de18 46bb
00000070: cf6d 023d 11a8 98bd d63a ae3d 6bda fa3d
00000080: d28f 28bd 777c d3bc 3e14 4bbd f65d 3a3d
00000090: 2b1e 303d 1c7d c73d 760b 16bd 50ed 32bb
000000a0: b0c2 093b c72b e1b9 ed18 70bd 7174 1cbd
000000b0: 92e4 c7bb 1b7e 93bd cf40 8cbd 9571 d3bd
000000c0: 29b9 acbd 89d2 33bd 79e7 51bd 0933 9f3d
000000d0: 1b50 923d 3a6e 85bd 24c9 9abd dc09 503d
000000e0: 78ea 813d 8733 0b3d d81b cf3c 2b01 93bd
000000f0: 9d1c 8a3d 1fe6 aa3c 8457 143d ce5e 6abd
00000100: 5810 7cbd 2ecc 20bc d4b3 70bc 8b8e 983b
00000110: 33ea a0bd f035 75bd baa0 41bd e785 66bd
00000120: 0b7c 8c3d fcdf 353d b29f 3e3d 375a a8bd
00000130: 526b 9e3d f179 a23c 8ca3 7b3c aebc e63d
00000140: bd2d c1bd 486d 8b3d 4617 8a3e 283c 51bd
00000150: 1272 c63c d55d fa3d 1d55 983d 0feb 7bbc
00000160: 396a 4f3c 1515 d23c e4ac e13c c35f 05bc
00000170: a15e ffbb cef5 b83c 3f2c b9ba 8648 e0bc
00000180: 5577 91bd 2f3b 64bd 022d c43c a2ed 413d
00000190: 5767 e4bd cd0a 1abd 886e c8bb 5c4c 7f3d
000001a0: 92ce 273d 530a 473e b0ac 433d ae27 e93d
000001b0: b1d6 51bd 3921 88bd ea00 8ebd 4517 4e3d
000001c0: a04c 9b3d ef3d b1bd f7a5 6abc 9dae a5bc
000001d0: 1041 1e3d 70ba d6bc 7265 e73c 11f3 aa3d
000001e0: 3ec2 a13d c643 3fbd fd25 92bc b734 5e3d
000001f0: dfbe cb3d b4ac 7d3d c1ea fdbb 0c13 2b3d
00000200: b7f7 97bc fd02 853c f9be 52bd e53e 813c
00000210: 82e3 a9bb c4fe 9d3c 7723 1a3d 606e 0e3d
00000220: b69c 89bd 4e28 35bd ebd9 71bc 48d2 913d
00000230: b739 623b c908 133e ba45 2cbe 38c9 84bd
00000240: 54fb f4bd b38d 9ebb 93d7 853c af50 b4bc
00000250: 32ee ce3b 5141 cf3b a741 a43d bf51 a5bd
00000260: 2e13 7bbe c191 35bd cb64 8a3b e81d ad3c
00000270: 1da9 20bd ed29 1f3d c79f b1bd df10 373e
00000280: aa8c c3bd 809c 5dbd 0178 8dbd 23fa 893d
00000290: a4dc 22bc d779 f63b 6478 a73d 474a b8bc
000002a0: 9500 313d f8c5 8bbd e1a3 813d 0cf6 bfbd
000002b0: b019 96bd ddae 243d 374b 46bd aa41 863d
000002c0: a36d 733b 49f2 3d3b 1eee 0e3d ed27 4dbd
000002d0: d4b5 adbd 1b52 90bd 53da 6ebd c1ea 1f3c
000002e0: 9d88 49bc 4412 0ebd a384 1d3d 69fa efbd
000002f0: c198 e03c 4d08 a1bb 7573 57be 774b af3b
00000300: 3391 da3c 261e f6ba 5891 e1bc 2a0b 7dbd
00000310: dfe5 943b 81ab 3f3d 4cc9 b5bd 8487 94bd
00000320: ff59 a43d 3f6b acbd 4ac6 053d 9ce3 6f3d
00000330: bdfe b0bc d3ff afbd 2a2b f6bc 9b05 24be
00000340: c78e bfbd a9cd 943c c771 21be 9266 80bc
00000350: 3eee 1bbe c5c9 353a 9ff2 803c bc95 533d
00000360: a1d2 40bd 8ab5 c63b 89ee 92bc 13ad 803c
00000370: 7cfa 01be 87ae ddbd 0afa f9bd c80e 863c
00000380: d556 de3c f749 11bd 6946 d8bd c507 c73b
00000390: 008e f2bb 526f d4bd 0dab 45bd 4b70 5cbc
000003a0: 0ced 72bd 3e39 99be dd62 07be 293a 91bd
000003b0: f403 1ebd cac0 80bc 951e 8dbc d6f3 1bbe
000003c0: f95e a5bc d354 08bd af7a 8e3d 8451 43bd
000003d0: 02cf c9bd 478e 9fba 8883 0bbd a831 463d
000003e0: 7284 8f3d 7f6d 00bd 9966 4d3b 75a9 74ba
000003f0: f6a2 64bd 537e 863c 1e70 613d c448 e9bb
0.04783792 -0.07020928 -0.09058047 0.07204972 -0.089148276 -0.09996959 -0.05378969 -0.05429208
0.063689604 0.052600715 0.040015344 0.07482608 -0.052008465 -0.032913875 0.09132673 -0.086753644
0.09773835 -0.059596285 0.03620007 0.07696359 0.01405448 -0.09338371 -0.07816341 0.040469185
0.22959098 0.08262638 0.03863411 -0.0030227224 0.031843003 -0.07453931 0.08507316 0.12248691
-0.041152783 -0.025816185 -0.04957985 0.045499764 0.04299752 0.097406596 -0.036632024 -0.0027302094
0.0021020584 -0.0004294796 -0.05861752 -0.038196985 -0.0061002458 -0.07201787 -0.06848299 -0.103243984
-0.08433754 -0.043901954 -0.05124614 0.07773406 0.07144185 -0.06515165 -0.07557896 0.050790653
0.063435495 0.033984687 0.025281832 -0.07177957 0.06743739 0.020861683 0.036216274 -0.05721932
-0.061539024 -0.009814305 -0.014691312 0.0046556643 -0.0785717 -0.059865892 -0.04727242 -0.056280043
0.06859597 0.04440306 0.046539016 -0.08220332 0.077353135 0.019833537 0.015358817 0.112664565
-0.09432552 0.06807953 0.2697088 -0.05108276 0.024224315 0.12224928 0.07438109 -0.015375867
0.012659603 0.025644818 0.027548261 -0.008140507 -0.007793263 0.022578146 -0.0014127566 -0.027378332
-0.07102839 -0.055720504 0.023947243 0.047345765 -0.11152523 -0.037607957 -0.006116692 0.06232868
0.040968485 0.19437532 0.04777211 0.113845214 -0.051230136 -0.06646962 -0.06933768 0.05031516
0.075829744 -0.08654391 -0.014321796 -0.020224864 0.038636267 -0.026211947 0.028246615 0.083471425
0.07898377 -0.046695493 -0.01784038 0.05424949 0.09948515 0.06193228 -0.007748932 0.04176621
-0.018550737 0.016236776 -0.051451657 0.01577706 -0.0051845917 0.01928652 0.03763148 0.03477323
-0.06719343 -0.04422789 -0.014761428 0.07120186 0.0034519264 0.1435882 -0.16823474 -0.06483692
-0.119619995 -0.004838669 0.016338145 -0.02201113 0.006315016 0.006324925 0.08020335 -0.080722325
-0.24519035 -0.044328455 0.0042234412 0.021132424 -0.03922378 0.038858343 -0.08673053 0.1787753
-0.09548314 -0.05410433 -0.069076546 0.06737163 -0.0099403 0.0075218487 0.081772596 -0.022496356
0.043213446 -0.06824869 0.063300855 -0.093731016 -0.07329118 0.040205825 -0.048411574 0.06555493
0.0037144206 0.0028983525 0.034895055 -0.050086904 -0.084819466 -0.070469104 -0.05831368 0.00976056
-0.012300638 -0.03468539 0.03845657 -0.11717684 0.027416589 -0.0049143196 -0.21040137 0.0053495723
0.026680565 -0.0018777295 -0.027535126 -0.061778225 0.0045440043 0.04679442 -0.08876285 -0.0725241
0.08024978 -0.08418893 0.032659806 0.058566675 -0.021605844 -0.085937165 -0.03004988 -0.16017763
-0.093534045 0.018164473 -0.15766059 -0.01567391 -0.15227601 0.0006934668 0.01574069 0.05165647
-0.04707587 0.0060641216 -0.017936008 0.015707528 -0.12693208 -0.10824304 -0.12205894 0.01636447
0.027141014 -0.03547093 -0.10560305 0.0060739242 -0.0074021816 -0.10372795 -0.04825883 -0.013454507
-0.059308097 -0.29926485 -0.13221307 -0.07091171 -0.03857799 -0.015716929 -0.017226497 -0.15229735
-0.020186888 -0.03328402 0.06956994 -0.04768516 -0.09853937 -0.0012173139 -0.034060985 0.0483872
0.07007684 -0.031354424 0.003134167 -0.00093331124 -0.055819474 0.016417658 0.055038564 -0.00711927

lstm.bias_hh_l0 f4 [512]
00000000: dd81 da3c 0829 11bc de37 de3c 8215 543d
00000010: 7345 a2bd 4377 873c 4c12 d9bc a7f4 64bd
00000020: 7736 a1bd 1688 3a3c 6553 32bd a8ba b83c
00000030: 635f a03d 3ad1 b23c e09d 193d 1e12 0cbd
00000040: 1ff9 90bc c17a 693b 13d8 c2bc e91a b1bd
00000050: 0589 3d3d 0454 f43c a473 95bd 81a8 a03d
00000060: 584e 4e3e 8255 42bd 06c4 79bb 4ab3 93ba
00000070: e09c 6c3d ea45 33bd a0f6 903d db9c 54bc
00000080: 030f 0b3d f936 bb3c 3b5e dc3c ff4a 63bd
00000090: f48b dbbb e87b 9ebc 8367 2ebd 71b8 3d3d
000000a0: 6da9 933c 6c06 843d 29ea 983d 04a3 7c3d
000000b0: e3ed cdbd 2714 40bc ffea 1c39 4996 84bd
000000c0: 26bf 6e3d 83ed 0dbe f3f1 b8bc a97d a53c
000000d0: 66aa 2f3d d163 dbbd c4a2 8fbc 7920 f2bc
000000e0: bc7f 13bd b9da 7abc c04d 753c 1421 633d
000000f0: 5da5 f7ba 7ea5 42bd fc54 123e 63af f6bb
00000100: b4dd 94bc 029e c4bd a4eb 543d 19b3 edbd
00000110: 0ca2 543d 6945 863d 74d6 963d 45fc a33d
00000120: 9579 1fbc 8cbb 913b 2c87 5dbd 468c 1ebd
00000130: ceed 093d 20ab e2bd 42a6 963d ff74 b93d
00000140: e07c 41bd 644c 52bc 89dd 873e 613d 373d
00000150: b71a 983d 4fc3 b03d aab7 243d 7dde 81bd
00000160: 6b09 af3d 5a7d b0bd 99cf 07bb 8fb7 413c
00000170: 6b1a cb3d 6247 51bd 9c5a 963d f7d6 933d
00000180: 7376 a93d e4f3 5c3d 7090 7fbd 7369 ce3b
00000190: 8276 87bd de02 163c 54d5 21bd 1761 1abd
000001a0: a179 613d b063 363e 2c39 e5bd c9bc e5bb
000001b0: 6a98 08bc 6bbe af3d c3f0 00bd ab9a f43c
000001c0: 7c3d 943d efdc bebb 2c92 81bd 5d83 9f3d
000001d0: 1164 533d d48f ea3d 1319 f73c 90c8 033c
000001e0: d878 50bd 2fde 5b3c 260b 4bbc dc89 e8bc
000001f0: 1654 963d b771 7cbc 36b9 6dbd 6653 9ebc
00000200: 2654 c4bd dd14 433d a1bb 293d 63c6 9c3c
00000210: 73ec d83c c6ee 22bd 28b3 f6bc 7e5e 9dbd
00000220: b554 873d ffde a13d 8a22 a0bd 3caa 26bd
00000230: 4002 79bc 49fa fc3d 65e2 50be c73f b2ba
00000240: e98d b9bd 55da d2bc a827 6dbd 545b 1f3d
00000250: 3d2e ef3c ad47 8b3b 4d0a 8b3c 7756 673d
00000260: ed8b 85be fcd4 f23c 5c48 a9bd a3a3 cbbd
00000270: 86f9 2e3d a200 94bc 0eff 9bbd ea46 bb3c
00000280: 1bd0 05be 336e eebc 0662 033b 741d 86bd
00000290: 85a4 473d be5b bcbd 958d ca3d 7177 c33c
000002a0: 83d1 cfbb 3a27 febc 0dc6 bfbb ce04 653d
000002b0: 351e b1bd a577 e9bd b26f 663d 1e0a 21bd
000002c0: b362 c1bd 9b80 05be ad53 38bd 26dd 24bd
000002d0: 1b56 5cbd 20ac 91bd b5f6 323c a942 30bd
000002e0: 352c 5dbd 2d73 98bd 07f7 9fbd e4e9 fdbd
000002f0: b213 90bd 9d5a 30bb d575 9abd afa6 2d3d
00000300: 34ec 133d 97e3 903d a064 a0bc ab2c c33d
00000310: b3b1 303c 80d2 a5bd bbc9 633d d981 60bd
00000320: 964d 95bc 31d6 b1bc 7a86 fc3b 399a c03d
00000330: 5a3b f53d bd07 62bd e9cc 51bd c656 3fbd
00000340: e8c1 a83b 56a6 85bc 2977 74be cd16 553c
00000350: 47f2 c1bd 335f f9bd c0c0 9b3c 248a d93c
00000360: fd16 ca3a cb27 003c 9419 3c3d 3d1d 9a3c
00000370: 76d6 013d 7b32 8c3c c95e 3dbd 781d e33c
00000380: da9d a23d 3fb3 d9bc ae83 efbd a2e2 643d
00000390: 406c bc3b 4c47 33bd 054b 143d cb4c dfba
000003a0: cfc0 503c ef43 99be 6bd1 62bd 43fe 04be
000003b0: ece9 613d f4b3 d4bd 69c2 e0bb 210e 33bd
000003c0: 7870 013d 8c7b 52bd f792 9abd 90e6 95bd
000003d0: 75ee dabc 4950 b23c df86 abbc ba8c 283e
000003e0: ca01 983d 83a5 9fbd 95f0 583d 1519 563d
000003f0: 7c53 7ebd f532 983c 5bf1 76bc e7ad 3f3d
0.026673252 -0.00885988 0.027126249 0.051778324 -0.07923403 0.01653636 -0.026497982 -0.05589738
-0.078717165 0.0113849845 -0.043536562 0.022549942 0.078306936 0.021828283 0.037504077 -0.034196965
-0.017696915 0.0035626146 -0.023784673 -0.08647711 0.04627325 0.029825218 -0.07297447 0.078446396
0.20147073 -0.047444828 -0.0038111224 -0.0011268642 0.057766795 -0.043767847 0.0707829 -0.01297685
0.033949863 0.022853361 0.026900401 -0.055491444 -0.0067000333 -0.019346192 -0.042579185 0.046318475
0.018025124 0.064465374 0.074665375 0.0616789 -0.10055139 -0.011723555 0.00014964862 -0.06473977
0.058287762 -0.13860135 -0.022576308 0.020201521 0.042887114 -0.10712398 -0.017533667 -0.0295565
-0.03601049 -0.015310937 0.01497215 0.055451468 -0.0018893887 -0.047521107 0.14290231 -0.007528232
-0.018172123 -0.0960045 0.051982537 -0.11606426 0.051912352 0.06556208 0.073651224 0.08007101
-0.009733577 0.004447406 -0.054083988 -0.038707994 0.033674054 -0.11067796 0.0735593 0.09055518
-0.04723823 -0.012835596 0.26536205 0.04473627 0.074269705 0.08631002 0.04021422 -0.063412644
0.08546718 -0.08617659 -0.0020723103 0.011823549 0.09917148 -0.051093467 0.07341501 0.07218736
0.082745455 0.05394353 -0.062393606 0.0062991916 -0.066144004 0.009155957 -0.039510086 -0.03769025
0.055047635 0.17811465 -0.11192545 -0.0070110303 -0.00833712 0.08581241 -0.03147961 0.029858908
0.0723829 -0.005824677 -0.06326708 0.077887274 0.051609103 0.11453214 0.030163324 0.008043423
-0.050896496 0.013419672 -0.012392795 -0.028386049 0.07340257 -0.015407971 -0.05803796 -0.019326877
-0.095863625 0.04762732 0.041438702 0.019137567 0.026479935 -0.039778493 -0.030114725 -0.076840386
0.066079535 0.07903861 -0.07819088 -0.040689692 -0.01519829 0.123524256 -0.20398863 -0.0013599329
-0.0906027 -0.025738874 -0.057899147 0.038905457 0.029196853 0.004250488 0.016972685 0.056478944
-0.26083317 0.029642574 -0.082657546 -0.099433206 0.042718433 -0.018066708 -0.07617007 0.022860963
-0.13067667 -0.029105281 0.002004744 -0.065485865 0.048740882 -0.09197186 0.09890286 0.023860665
-0.0063421144 -0.031024564 -0.005852467 0.055912785 -0.0864834 -0.113997735 0.056258865 -0.03931629
-0.094426535 -0.1303734 -0.045001674 -0.040249966 -0.053793054 -0.07112908 0.010923077 -0.043032322
-0.053997237 -0.07443843 -0.078107886 -0.12398127 -0.070350066 -0.0026909478 -0.07542006 0.04239529
0.036113933 0.07074659 -0.019579232 0.09530004 0.010784554 -0.0809679 0.055612307 -0.054811332
-0.018225472 -0.02170858 0.0077064605 0.09404416 0.11974211 -0.05518316 -0.05122081 -0.046713613
0.0051500686 -0.016314667 -0.23873581 0.013005924 -0.09470039 -0.12176361 0.019012809 0.026555128
0.0015418228 0.007821987 0.04592283 0.01881277 0.031698667 0.017113915 -0.046232972 0.027724013
0.07940264 -0.026574729 -0.11695038 0.055880196 0.005750209 -0.043769166 0.036204357 -0.0017036436
0.012741282 -0.29934642 -0.055375498 -0.12987618 0.055154726 -0.10385886 -0.006859113 -0.043714646
0.0316014 -0.051387355 -0.075475626 -0.07319367 -0.026725033 0.021766799 -0.020938335 0.16459933
0.07422216 -0.07795241 0.052963812 0.052270014 -0.062091336 0.018578986 -0.015072192 0.046796706

lstm.weight_ih_l1 f4 [512, 128]
00000000: fbcb 20bd 075e 91bd 5656 9fbb 7228 933d
00000010: a640 a4bd b1b4 4bbd 3447 70bd ef63 933d
00000020: 8cf0 74ba b01a bd3a 94e5 ccbd b279 f53c
00000030: 57b5 cd3d 4df3 3d3d 5456 023c 1ac9 e03c
00000040: 4e1c 59bd 1159 4bbc d2cf 273d 80f0 2c3d
00000050: 8209 1fbc 2a33 693b e99c 98bc 9f15 833d
00000060: 0183 10bd 4f47 353c 6dd7 f7bc 70fc 723d
00000070: 4795 a33c c9ec 973c 0a8d 15bb d819 e9bd
00000080: ddac 3fbd 3eef a03d de1a d53c 1ddc 903b
00000090: ad05 873d b425 67bd 6e70 343b aef8 373c
000000a0: 0efc 10bd ed4b 5b3d ac29 54bc 1265 623d
000000b0: cf22 c63c 2641 9cbd 6856 47bd 6ce2 273d
000000c0: 478e 9e3b d082 e73c 5124 85bd 40cf bfbb
000000d0: 43f0 b43d 649e a3bd 2246 713d fe1e d43a
000000e0: 5bb5 f63d fb32 9b3d f3b6 dcbd 6b6b afbc
000000f0: 0c82 04bd 8a17 adbd 6482 463d 30c7 9abd
00000100: 1df2 35bd ed2e 9e3d 6b26 9a3d 2e22 8a3d
00000110: ce7d 54bd 2113 f1ba 41aa 583d ad9b 013d
00000120: 5df6 21be 25ef 9ebd 7f1b 50bd 6f57 1abc
00000130: a032 293d 2b41 22bd 83f6 653d 2ba5 803b
00000140: 8363 093d a411 403d 0028 f5bc 5d27 9d3c
00000150: f179 3bbd b4cd 93bd cc8d 59bc 6f63 143d
00000160: ae8a b4bd 3cc0 2a3d 0e09 83bd eff1 2ebd
00000170: a522 473d 26c4 73bd 0098 c63b 6d78 c7bd
00000180: 891e fd3c 42cb 353d b5ef aa3b 7cc5 fb3b
00000190: cf4e 3c3e 1614 98bd d011 e03d f88b e23c
000001a0: 2bc4 1e3d 13a8 3e3d 0ebb 1ebd a1c1 1abd
000001b0: dfc9 b4bd c674 db3c 30e0 9abc 5b13 563a
000001c0: 0d5e acbd 7889 a7bc 8f70 233d 20e9 853c
000001d0: 19e9 3c3d 32cb 38bd d9fa bd3d 9c39 8f3c
000001e0: 40f8 863d 276c 8c3a eea4 dbbc b2d4 053d
000001f0: c60e 973c 88a3 72bd 45ec 9cbc 04b4 133c
00000200: 69f9 9e3c 4bbf 24bc 4010 83bd 011d 13bc
00000210: 6e4a 793c 31f0 98bc 752c dabd dbf6 82bd
00000220: edeb f03d e1fe a6bc 77ce 04bd ab12 9fbc
00000230: 8828 2fbc 65f1 73bd cbd7 513d b1b0 aabd
00000240: 6839 e53b 1151 a83c 9615 dd3c 83e6 913d
00000250: 4cd5 17bd 0466 fc3c 7ccc 52bd a07e 1e3d
00000260: d97e 19bc 550b bb3d ca53 8ebd 3278 23bd
00000270: d38d cabd 9a87 d3bd c726 46bd fd48 f1bb
00000280: c3c1 72bd 5d14 d93d 5318 ad3d 55d2 d1bd
00000290: 16b8 29bd 78c3 8a3c 02c1 2cbd 61c0 a03d
000002a0: 90a7 ddbd 07a9 57bc e1e4 1e3d bf60 15bd
000002b0: ae5f cd3b 013b 723d c048 0b3d 0d6a 4abd
000002c0: f038 b1bd fddb ae3d c234 e3bc c59c 323d
000002d0: 721d a1bd bf5a abbd 942d c2bc f7cf 12bd
000002e0: 470a 843d f1a3 013c 063f 31bd 6a4c bebd
000002f0: 8585 48bd 715c 963d b1c7 a53d 0de0 0e3c
00000300: 8a17 673b 475a ac3d 54d2 3d3d b202 d8bc
00000310: 5a3b ff3d aefa 293d cae5 52bd 024c dfbd
00000320: e5fb 71bd 2000 dcbc 516f 263c 83d6 7fbd
00000330: 2b85 cf3d 36b0 baba ff21 a7bc 8b55 813d
00000340: a37a 51bd 7c5e 623d cb17 1fbc 87a9 fa3c
00000350: 8f78 2fbd 0d69 343d 0ba0 73bc 3f12 373b
00000360: d89b 4abd a9e6 783c c3b5 0cbd b061 72bd
00000370: 4d16 2fbc e1e7 c93c d682 9bbd 15e9 bcbd
00000380: a8b1 93bd 1b0c bf3d d4eb 513d 1550 483d
00000390: d3e5 5ebb 6810 56bd 8510 cb3d 4484 313c
000003a0: f884 a7bd 86db 6e3d 94c4 47b8 1d38 503b
000003b0: 9f4b d5bd 1b1b 9b3d 50da c73d 9ec1 1ebd
000003c0: 2f57 6fbd 9d02 debd 3389 1e3d c81f 023d
000003d0: dcc4 b03b 2109 273c d47e 10bd 966c debc
000003e0: 0dd0 65bc b714 74bd ad30 673c 433f 4c3c
000003f0: 05f3 663d d81a a83d 5c1f be3d e21b 7d3c
-0.03925703 -0.070980124 -0.004862587 0.07185449 -0.08020143 -0.049732868 -0.058661655 0.07196795
-0.00093437056 0.0014427509 -0.10004726 0.029965255 0.100443535 0.046374608 0.007955153 0.027439643
-0.05300551 -0.012411372 0.040969677 0.042221546 -0.009706857 0.0035583475 -0.018629508 0.06400608
-0.035281185 0.011064365 -0.03025409 0.059322774 0.019968642 0.018545525 -0.0022819662 -0.113818824
-0.046795715 0.07858132 0.026013788 0.004420771 0.065928794 -0.05643244 0.0027532834 0.011228723
-0.035396628 0.053539205 -0.0129493885 0.05527217 0.02418652 -0.076296136 -0.048666388 0.040987417
0.004838738 0.028260618 -0.065010674 -0.0058535635 0.08834889 -0.07989195 0.058904774 0.0016183553
0.120463096 0.07578083 -0.10777082 -0.021413526 -0.032350585 -0.08451755 0.048464194 -0.07557523
-0.04442035 0.07723794 0.07526859 0.067448005 -0.05187779 -0.0018392542 0.05289674 0.031642605
-0.15816636 -0.07760457 -0.050807472 -0.00942026 0.041308045 -0.03961293 0.056143295 0.0039259396
0.033542167 0.046891823 -0.0299263 0.019183809 -0.04577059 -0.07216969 -0.013278436 0.03622764
-0.088155136 0.041687235 -0.063982114 -0.042711195 0.048617024 -0.059513234 0.0060606003 -0.09739766
0.03089835 0.044383295 0.0052165636 0.007683454 0.18389438 -0.07425706 0.109408975 0.027654633
0.0387613 0.046547007 -0.038752608 -0.037782315 -0.08827566 0.02678908 -0.018905729 0.00081663363
-0.08416376 -0.020451292 0.039902266 0.016346514 0.046120737 -0.045115657 0.09276361 0.017483525
0.06590319 0.0010713384 -0.026812043 0.032673545 0.018439662 -0.059237987 -0.01915563 0.009015087
0.019406037 -0.010055373 -0.06399584 -0.008979083 0.015215499 -0.01866922 -0.10653011 -0.0639474
0.11763749 -0.020385208 -0.032423463 -0.019418081 -0.010690816 -0.059556384 0.051231187 -0.083344825
0.0069953687 0.020546468 0.026987832 0.07124045 -0.03706865 0.030810364 -0.051464543 0.038694978
-0.009368622 0.09133021 -0.06949575 -0.03990955 -0.09890332 -0.10328598 -0.048376825 -0.007363437
-0.059266817 0.10599587 0.08451905 -0.10245196 -0.041435324 0.01693891 -0.042176254 0.07849193
-0.10822976 -0.013162858 0.038792495 -0.036469217 0.0062675094 0.0591383 0.034004927 -0.049417544
-0.08653438 0.08538053 -0.027735118 0.04360654 -0.078669444 -0.08366918 -0.023703374 -0.035842862
0.06447273 0.007912622 -0.043272994 -0.092919186 -0.04895546 0.073418505 0.08094729 0.00872041
0.0035261833 0.084156565 0.046343163 -0.026368473 0.12462492 0.041498832 -0.051488675 -0.10903169
-0.059078116 -0.026855528 0.010158376 -0.062460434 0.10132822 -0.0014243189 -0.020401953 0.06315144
-0.051142346 0.05526589 -0.0097102625 0.030598415 -0.042839583 0.044045497 -0.0148697 0.002793446
-0.04946503 0.015191712 -0.03435303 -0.059175193 -0.010686469 0.024646701 -0.07593314 -0.09224144
-0.072116196 0.09328481 0.051250294 0.048904497 -0.0034011498 -0.05226174 0.0991526 0.010834757
-0.08179659 0.058314823 -4.7628375e-05 0.0031771727 -0.10414814 0.07573529 0.09758437 -0.038758866
-0.058432754 -0.10840342 0.038705062 0.03176859 0.005394561 0.010195048 -0.035277203 -0.027151387
-0.014026654 -0.059590068 0.014110726 0.012466255 0.056384105 0.08208245 0.09283325 0.015448542

lstm.weight_hh_l1 f4 [512, 128]
00000000: 9904 e93c c1b5 b8bd 4ead 66bd 8348 383d
00000010: 93a6 6fbd b441 79bd 1ca0 27bd abab d6bd
00000020: 136f 283c 69a2 9c3c 13a6 e4bd f4da 81bd
00000030: 5017 483c 6e46 bdbd 9813 4dbd d99d b0bc
00000040: 1949 ad3c 1344 af3d 3822 1f3d 3501 7dbd
00000050: a03d aabd a237 273d c452 513d 0cad ca3d
00000060: 399b 003d 197e 20bb 3c3c 69bd ffb9 29bd
00000070: ec60 cc3b cba1 17bd d79f a03b a3c5 9c3d
00000080: 147d 973d d222 243d cdeb 3fbd a31d 673c
00000090: e9b8 183d e0b6 51bd 88ae 97bd c1da 863d
000000a0: 18c9 7c3d 3c5a 47bd ad45 9abd 8678 b6bb
000000b0: 09ff 81bd 963a 403d fff0 45bd de2a c43c
000000c0: 3789 8c3c 55d4 0cbd 4a8a a43c 8e53 6fbd
000000d0: fc48 ea3d 2de7 a1bd 5b64 a73c 02f3 9b3d
000000e0: 308a 2f3d 54a5 90bd 3293 5fbd 283f 063d
000000f0: 21bd 41bc d77b 8e3d 95b0 3ebd b13b 39ba
00000100: ea7e c7ba f0d9 6cbc 9f38 203d 763a 973d
00000110: bed2 a3bd 4a09 30bd 3812 a03d 6ed7 053c
00000120: 2167 c33d ed57 803c b94c c93d ef49 693d
00000130: f5dc 823d 65ab 86b8 9624 853d 6855 803d
00000140: 4864 58bc 70f5 7a3c be8d dc3c 4efd 79bb
00000150: f15f 5e3c 1849 743d 75da 99bd c7fa cb3d
00000160: 46de 38bd d8db 86bc 3f32 8cbd ba25 dc3c
00000170: da92 50bd d64d 803d 07da bbbd 5cfe f93a
00000180: 4171 ab3d 1cc4 0f3d 780d 913d 4d7c 683d
00000190: 63a3 4bbd 7e72 96bd 24f6 3bbd 0128 913b
000001a0: 107e 8abd eb66 473d c287 773d 83ad c73c
000001b0: bfc3 09bd 6e43 bfbc b139 6b3d acfc 08bd
000001c0: 62c2 24bc 5013 e1bd 49b6 583c befb 87bc
000001d0: 0033 e53d a19c c9bd 600d 85bd 7516 93bd
000001e0: fa2a 9cbd af93 bc3d 6318 113d d34a 9039
000001f0: 7fd3 c8bd 7937 03bb 222c 1b3d e713 a7bc
00000200: f2eb 913d 6abc aabc 5b2b ce3d 6028 5bbd
00000210: cd75 d33d 77c5 cb3c b501 363d b9fc 1abe
00000220: fe4b 043c 4868 913c 9f8b ab3d ec3f 99bd
00000230: 2143 283c a599 85bd 0865 a4bd fc20 8c3d
00000240: 0892 59bd 0faf 1fbc 1a87 10bd 974e 353d
00000250: d999 283d 3ef4 09bd 4b6c 06bd 3f62 edbc
00000260: ab98 d43d cdf7 613a 188f 45bd 9925 a03d
00000270: 057e 15bd b748 643d 53de 4dba f9e1 a33c
00000280: 22fa ddbc 33fb fc3c ab54 c23d 812a 8cbd
00000290: fa7e 023d 17b1 99bc c7ae 353d 1ac9 a5bd
000002a0: 4f46 2abc 23ad 5bbc f1a0 a0bd ca56 553d
000002b0: 1f38 303d f9b8 e73d 7eb1 d63b 4f35 95bc
000002c0: 0ccc 8a3c 44fd 7a3d ec55 833c 8579 7d3d
000002d0: a23d 403d 99bf 353d 0b19 c9bd 3334 9e3c
000002e0: d06e a3bd 1851 a7bd d43b 0d3c 785d 903c
000002f0: bedd b5bd af3e 703d c52f 573d 3c77 053d
00000300: 3fec f83c d45d 46bd 5a53 4dbd 701f 64bd
00000310: 2e63 dabc e27c 943d c0a3 3f3d fd40 00bd
00000320: fe91 7ebd f1f0 873d 853a ea3c 9ddc d7bd
00000330: de78 813b 5519 0dbc e5ce 30bd 6079 a23d
00000340: 7749 223d 81dc 54bd 00d4 f6bc 868a b5bc
00000350: 9d4c 233d b72b e73c 4f49 bb3c 8442 ca3c
00000360: 1690 10bd 961c 953d 8dce 873c eae5 373d
00000370: 8de1 ed3d 8fc6 1abd 16a2 353d 83fa 9abd
00000380: ed3c 8dbc 61ad fa3d 25c0 d5bc a01f bd3c
00000390: 1350 ebbd de82 b9bd fcdd 3bbd ab79 993d
000003a0: de38 37bd 98b0 a6bc e198 bd3c 9dcf 363c
000003b0: 2568 bb3c dfa0 37bd c294 cdbc 1e31 56bd
000003c0: 86e2 033d 17bf ca3d ddfd 80bd f7f6 5abd
000003d0: e17e 09bc 411a a63d 5ff1 7dbd 814d dfbc
000003e0: 116f b83d b0ae cb3d d0ff dc3d 408b d7bd
000003f0: ebe3 7a3d 1c71 a63d d138 8f3d 3797 87bd
0.028444575 -0.09019042 -0.05631762 0.044991028 -0.058508467 -0.060853675 -0.040924177 -0.10481962
0.010280388 0.019120412 -0.11164489 -0.0634059 0.012212589 -0.09241949 -0.050067514 -0.021559643
0.02115302 0.08557906 0.038850993 -0.06176873 -0.08312535 0.04082454 0.051104322 0.09896287
0.03139803 -0.0024489223 -0.05694221 -0.041437145 0.00623714 -0.037019532 0.004901867 0.07654884
0.07396904 0.04007227 -0.046855737 0.014106187 0.03728572 -0.051199794 -0.07406336 0.06584693
0.061715215 -0.04867004 -0.07532821 -0.0055685667 -0.06347472 0.046930872 -0.048325535 0.023946222
0.017155273 -0.034382183 0.020085473 -0.058429293 0.11439702 -0.079054214 0.020433595 0.076147094
0.042856395 -0.07062784 -0.054583736 0.032775074 -0.011824877 0.06957214 -0.04655512 -0.00070660847
-0.0015220318 -0.014456257 0.039116498 0.073841974 -0.0799918 -0.04297761 0.07815975 0.008169038
0.09541155 0.015666926 0.09829087 0.056955274 0.063898005 -6.421543e-05 0.06501119 0.0626629
-0.013207503 0.015317306 0.026923057 -0.0038145366 0.013572679 0.05964002 -0.075123705 0.09959941
-0.04513385 -0.016462252 -0.06845521 0.026873458 -0.0509213 0.06264846 -0.09172445 0.0019072997
0.08371211 0.035099134 0.07082647 0.056759167 -0.049716365 -0.073460564 -0.045889035 0.0044298177
-0.06762326 0.048682135 0.060432203 0.024374729 -0.033633944 -0.023347583 0.057428066 -0.03344409
-0.01005611 -0.10990012 0.013227054 -0.016599532 0.11191368 -0.09844328 -0.06496692 -0.07182018
-0.07625385 0.09207856 0.035423648 0.0002752157 -0.09805965 -0.0020022078 0.037883885 -0.020395232
0.07125081 -0.020841796 0.10066863 -0.0535053 0.10325203 0.024874432 0.04443522 -0.15135469
0.008074759 0.01774992 0.0837624 -0.07482895 0.010269911 -0.06523446 -0.08027083 0.06842229
-0.053117782 -0.009746327 -0.035285093 0.044264402 0.041162346 -0.033680193 -0.03281812 -0.028977511
0.103806816 0.0008619994 -0.048232168 0.07819671 -0.036497135 0.05573341 -0.0007853258 0.020005213
-0.027096812 0.0308815 0.094888054 -0.068440445 0.031859376 -0.0187612 0.044356134 -0.08094998
-0.010392739 -0.013407978 -0.07843197 0.05208472 0.04302227 0.113145776 0.0065519204 -0.018213896
0.016943 0.06127669 0.016032182 0.06188347 0.046933778 0.044372175 -0.0981923 0.019312
-0.0798012 -0.08169764 0.008620221 0.017622694 -0.088801846 0.05865353 0.05253579 0.032584414
0.030386088 -0.048429325 -0.05012832 -0.055694044 -0.02665862 0.07250382 0.046787024 -0.031311978
-0.062150948 0.06637753 0.028592357 -0.105401255 0.003951176 -0.008611997 -0.04316606 0.07933307
0.039620843 -0.0519681 -0.030130386 -0.02216078 0.039867986 0.028219087 0.022862105 0.02468992
-0.03529366 0.07280843 0.016577983 0.044896998 0.11615286 -0.037787016 0.04434403 -0.075673126
-0.017240966 0.12240101 -0.026092598 0.023086369 -0.11489882 -0.09058164 -0.045865998 0.074939094
-0.044731967 -0.020347878 0.023144187 0.011157897 0.022876808 -0.044831153 -0.025095347 -0.052292936
0.03219845 0.09899729 -0.062984206 -0.05345818 -0.008392067 0.08110476 -0.061997768 -0.027258636
0.09005559 0.09945428 0.1079098 -0.10524607 0.061252516 0.08127043 0.06993259 -0.06620639

lstm.bias_ih_l1 f4 [512]
00000000: 7b3a f9ba 4249 8fbd 8181 a93e 1e71 89bd
00000010: 9dec 45bd f8f6 2cbd 02ff 4dbd 956a f4bd
00000020: 09c0 5ebd 77bc 4b3d 7fdb e2bc 8f4b 473c
00000030: 5729 843c 9813 2c3d 7755 983b cf0a 87bd
00000040: 1751 c8bd 65e2 aabd b983 97bc 09ee e1b9
00000050: f99e a33d 5ec9 b3b9 fa8c f43b adc2 e7bc
00000060: ba4f b3bd 7e96 903b fc0a 5abb 0a5a 6d3d
00000070: 4703 bfbd 4ac9 853c 5af2 303d 7154 b1bd
00000080: fdbf a9bc 4572 22bd 1f40 4e3c 140a 0fbd
00000090: 5cef aabc 8596 aa3c 7c78 93bd 5fbe f73c
000000a0: 9612 9a3d 0eba bd3d c08e bcbb ccf8 a6bb
000000b0: a5c7 a33c 5c68 87bd adca a0bd bf54 1a3d
000000c0: aa36 bb3c 540b 86bd b0c8 843c 8aeb ee3b
000000d0: 01a6 babd 60a8 84bc 94f1 383d c6c3 933d
000000e0: 162e 7a3d 9d36 1abd ed45 463c 7ee6 01bd
000000f0: fe12 903d f101 cb3c 607b 823c 8710 963d
00000100: 74fc 253c 28f1 08bd 6d80 c0bd d2da 09bd
00000110: c5be 493d 09a7 283d 7250 883d ee95 7e3c
00000120: f590 babd aedb b33b 8b45 c63d 98ad 05be
00000130: 394b a83d 20e3 bcbc 1275 37bd d329 59bd
00000140: 90fe 8e3c 6f31 143d 8c74 fb3c 5b49 bcbb
00000150: 3e52 89bd c1b4 40bc 5398 e5bd e0dd 2fbc
00000160: aeff 26bc d878 e1bd 0f9d 243d a341 eabc
00000170: 3d33 303d 0d93 bcbd f669 99bd 62c7 993d
00000180: ee6b c0bd 9c77 833d 3a44 61bd 0634 b6bd
00000190: 3bc7 cf3c 9118 2abd c948 b63d 33ce 5f3d
000001a0: 23d6 863c 3eb5 1d3d c413 843d cf3c 33bc
000001b0: 16cd 003d a5f1 72bd 280e b13c 2596 74bd
000001c0: 6b2c 62bd 7211 b13d 5e3c 9abd 0e2d 94bd
000001d0: 9e93 033d c60d 5e3c da61 833d bc6d 43bd
000001e0: 13b7 93bd b36a 333d c57e a2bd e982 cd3c
000001f0: b53d 48bb be78 dc3c 4002 48bd 6fdb c63d
00000200: a267 30bd 623a b0bd d0dc fabc c83f 16bd
00000210: be32 02bd 8a70 b73b 4eb4 713c d2e8 1b3d
00000220: d1ca 9f3d ecd7 f23c 2c63 b2bd 86ad 47bd
00000230: 3119 acbd d336 1a3d 24ca 433c c490 3dbd
00000240: 50bd b4bd 9dc9 8ebd 2a92 213d bcf4 c3bc
00000250: cd6a a33d cc47 d93c 4a9a 623c 2690 2f3c
00000260: a869 9c3d 6e08 873d 1ddf 94bd 858d 84bd
00000270: d194 d7bc 15b1 89bc ad70 613c fd68 403d
00000280: d13a 35bd 017d 82bd 1f3d 3c3c 3493 c8bd
00000290: f833 b53b d74d 31bd 4eee 223d fd68 26bd
000002a0: 451f 3e3d 0590 b13d 7f5b af3d 0a11 08bc
000002b0: 079d a03d ad2b 023d 0808 5bbc 0fd0 f7bd
000002c0: 405a ccbd 080f 5ebc 61a7 8b3c 78f1 923c
000002d0: d717 59bd 3218 2abd 5a4c 00bd 7f45 95bd
000002e0: f567 3f3b 4e8f 91bd b387 a13d 7602 4bbd
000002f0: 61d8 753c ccd5 d03b 747a 83bd 8d1d e33d
00000300: 8efa aebc f680 70bc 27c5 153c 90c2 bf3c
00000310: 4deb cfbd 2efa 19bd 5706 b4bc 7bc9 89bd
00000320: 74b1 dd3c 94a5 8abb be56 8f3d 195a e8bd
00000330: 9797 a93d 378b c1bd 2655 bc3b 89c0 7fbd
00000340: 18e3 263d 963d 5c3c 6ae2 b93d 32eb 383d
00000350: 1cf8 9d3d 1b00 ccbc 1469 033d 8efc 23bd
00000360: 056e 68bd 7740 8ebc b80c ca3d 0b32 bf3c
00000370: 07e2 45bd 5999 a5bd 90ed c53c 5875 b63d
00000380: 3a69 863d 671a 67bd 205a cabc 8722 29bd
00000390: 8d8c e23c 1473 b43d 3150 533c f7c3 873b
000003a0: 4143 bfbd 8c40 9f3c b682 1fbd f70a bb3b
000003b0: 053a 89bd 4d8d 33bd e00d 91bc bfee 653d
000003c0: a72e b83c 2b53 7abd c0d5 eb3b 1777 303d
000003d0: e27b ebbd 641d 633d 276a d03d 195c 993c
000003e0: 6618 043c 09f8 a0bd 17b3 8b3d f7ae 9a3d
000003f0: 4853 123d a6c9 9dbc b7f5 9ebd 4c62 60bd
-0.0019014621 -0.06996395 0.33106616 -0.067110285 -0.048321355 -0.042227715 -0.050292023 -0.119343914
-0.054382358 0.04974028 -0.027692555 0.012164011 0.016132994 0.042010874 0.00464886 -0.065938585
-0.09781092 -0.083439626 -0.018495427 -0.00043092694 0.07989306 -0.0003429157 0.007463095 -0.02829107
-0.08755441 0.0044124713 -0.0033270707 0.057947196 -0.09326797 0.016331334 0.043199874 -0.08658684
-0.02072143 -0.039659757 0.01258853 -0.03492172 -0.020866089 0.020823726 -0.07200715 0.030242143
0.07523076 0.09264003 -0.005754322 -0.005095577 0.019992659 -0.06611702 -0.07851157 0.037678476
0.022853214 -0.065451294 0.016208977 0.007291262 -0.09113694 -0.016193569 0.04515226 0.07215075
0.061079107 -0.03764974 0.012101633 -0.031713955 0.070348725 0.0247812 0.01592797 0.07327371
0.01013099 -0.03343311 -0.09399495 -0.03365595 0.049254198 0.041174922 0.06655969 0.015538676
-0.091096796 0.0054888343 0.09681233 -0.13054502 0.082174726 -0.02305752 -0.04478938 -0.053018402
0.01745537 0.036179956 0.030695222 -0.0057460493 -0.067051396 -0.011761845 -0.11210694 -0.0107340515
-0.010192795 -0.11009377 0.040188845 -0.028595751 0.043017615 -0.09207735 -0.074909136 0.075087324
-0.09395586 0.06419298 -0.054996707 -0.088966414 0.025363555 -0.041527335 0.089006014 0.054640006
0.01645953 0.038502924 0.064490825 -0.010939791 0.031445585 -0.05931248 0.021613196 -0.0597135
-0.05521814 0.086459056 -0.075310454 -0.07235156 0.0321232 0.0135530885 0.06415148 -0.047712073
-0.07212653 0.04380293 -0.079343356 0.025086837 -0.0030554358 0.026913043 -0.04883027 0.097098224
-0.043067582 -0.08604886 -0.03062287 -0.03668192 -0.031786673 0.0055981325 0.014752461 0.03806383
0.07802356 0.029643975 -0.08710322 -0.04874947 -0.084032424 0.03764994 0.01195005 -0.046280637
-0.08825171 -0.069720484 0.039446034 -0.02392041 0.07979355 0.026523493 0.013830731 0.01071552
0.0763734 0.06593405 -0.07269118 -0.06472305 -0.026316078 -0.016808072 0.013759774 0.046975125
-0.044245545 -0.06371499 0.011489182 -0.09793702 0.005529877 -0.043287124 0.039778046 -0.04062747
0.04641654 0.08670048 0.08562373 -0.008304844 0.078424506 0.031779934 -0.013368614 -0.12100231
-0.09978151 -0.013553388 0.017047586 0.017937407 -0.05300125 -0.04152698 -0.031322815 -0.07288646
0.002920625 -0.07107411 0.07887211 -0.049562894 0.015005202 0.006373143 -0.064198405 0.11089621
-0.021359708 -0.014679184 0.009141243 0.023408204 -0.10152302 -0.037592106 -0.02197568 -0.067278825
0.027062155 -0.004231164 0.06998967 -0.1134531 0.082808666 -0.09450381 0.005747455 -0.062439475
0.040743917 0.013442418 0.09076388 0.045146175 0.07713339 -0.024902394 0.032082632 -0.040035777
-0.056745548 -0.017364724 0.09865707 0.023339292 -0.04831126 -0.08085889 0.02416113 0.089091
0.06563039 -0.056421664 -0.024701178 -0.041292693 0.02765491 0.08811012 0.012897537 0.004143234
-0.093389995 0.019439958 -0.038943015 0.005708094 -0.067005195 -0.043835927 -0.017706811 0.05613589
0.022483183 -0.06111447 0.007197112 0.043082323 -0.11498238 0.05544795 0.10176497 0.018720673
0.008062458 -0.07859809 0.06821268 0.07552903 0.035723954 -0.019261193 -0.0776171 -0.054781243
